…
4.0, fl_gamma=0.0, hsv_h=0.015, hsv_s=0.7, hsv_v=0.4, degrees=0.0, translate=0.1, scale=0.5, shear=0.0, perspective=0.0, flipud=0.0, fliplr=0.5, mosaic=1.0, mixup=0.0, copy_paste=0.0
ClearML: run 'pip install clearml' to automatically track, visualize and remotely train YOLOv5  in ClearML
Comet: run 'pip install comet_ml' to automatically track and visualize YOLOv5  runs in Comet
TensorBoard: Start with 'tensorboard --logdir hackaton_trafic_signs', view at http://localhost:6006/
Overriding model.yaml nc=80 with nc=155

                 from  n    params  module                                  arguments
  0                -1  1      5280  models.common.Conv                      [3, 48, 6, 2, 2]
  1                -1  1     41664  models.common.Conv                      [48, 96, 3, 2]
  2                -1  2     65280  models.common.C3                        [96, 96, 2]
  3                -1  1    166272  models.common.Conv                      [96, 192, 3, 2]
  4                -1  4    444672  models.common.C3                        [192, 192, 4]
  5                -1  1    664320  models.common.Conv                      [192, 384, 3, 2]
  6                -1  6   2512896  models.common.C3                        [384, 384, 6]                 
  7                -1  1   1991808  models.common.Conv                      [384, 576, 3, 2]
  8                -1  2   2327040  models.common.C3                        [576, 576, 2]                 
  9                -1  1   3982848  models.common.Conv                      [576, 768, 3, 2]              
 10                -1  2   4134912  models.common.C3                        [768, 768, 2]                 
 11                -1  1   1476864  models.common.SPPF                      [768, 768, 5]
 12                -1  1    443520  models.common.Conv                      [768, 576, 1, 1]
 29                -1  2   2437632  models.common.C3                        [768, 576, 2, False]
 30                -1  1   2987136  models.common.Conv                      [576, 576, 3, 2]
 31          [-1, 12]  1         0  models.common.Concat                    [1]
 32                -1  2   4429824  models.common.C3                        [1152, 768, 2, False]
 33  [23, 26, 29, 32]  1    923520  models.yolo.Detect                      [155, [[19, 27, 44, 40, 38, 94], [96, 68, 86, 152, 180, 137], [140, 301, 303, 264, 238, 542], [436, 615, 739, 380, 925, 792]], [19
2, 384, 576, 768]]
Model summary: 379 layers, 36164832 parameters, 36164832 gradients, 51.3 GFLOPs

Transferred 619/627 items from yolov5m6.pt
AMP: checks passed
optimizer: SGD(lr=0.01) with parameter groups 103 weight(decay=0.0), 107 weight(decay=0.0004921875), 107 bias
…
